best_model.pt (torch, 4367 bytes, 3 tensors)

hidden.weight f4 [79, 6]
00000000: d8a7 73be cbbb 85be e004 8bbe f0ce 383e
00000010: bf38 a3be 0453 b13e ce4f dabd b04c afbe
00000020: 5d5d 81be d60e 26be 2f7b bcbe a053 993d
00000030: 3048 7dbe 24d5 e53e 27e7 ecbe 2425 d3be
00000040: 7d99 ca3d bd0f f23d f2d6 e7be 9db4 7abb
00000050: c3ee 03bf 7e8a e6be af19 523e 31af 09be
00000060: 3b22 8f3e 6895 743e 8b2f d3bb efec fcbc
00000070: 702a 1fbe 34ee 5ebe 6a9c 0abe 58b2 913d
00000080: e4fa 87be a3a6 d2be b4f7 f6bd 1a2b ba3e
00000090: 4883 01be b48b 443e 109d a8bc f24c 0abc
000000a0: 1a1b d43e 4190 b3bd 726c 82bd 65d7 0f3e
000000b0: 2a2d 89be a4a0 35be 1cc4 4bbe ba54 a7be
000000c0: a806 1ebd 3016 b4be 44cf 55be 28a4 a33e
000000d0: 0b2d cbbe 0259 1abe 8912 c53e 282f 063f
000000e0: 05cb 7ebe 4ed1 fdbd 3c57 a9be 44b0 dd3e
000000f0: 2499 c6bd d43d 67be 3ad8 573e a521 3fbc
00000100: 84c5 29be 85a2 cabe d736 ff3c 5cbf 59be
00000110: 1773 83be 78ae e3be 0253 d6bc db5f b7be
00000120: 9936 8ebe 5a17 15be 8bc2 683c e1cf 2fbd
00000130: 14bd cebe 8780 01be 64c3 a13d 9c99 f2bc
00000140: 8813 833d 7f71 c93e 89b5 0abe fc71 69be
00000150: 00f7 283e 6997 b03d ead5 48be 9928 c1bb
00000160: b85e 96be 039c a23c faca bc3e 3b4e e23e
00000170: 7e97 5e3e 5c07 933e 2825 21bd a4fd 85be
00000180: d47b 15be da4c 8f3e 38d6 d9bd 4d9a 953e
00000190: 6156 073e 6323 cc3c 0ede bfbe acd6 78bd
000001a0: b74d 3ebe bb79 723d 1c31 c5be 2011 fe3d
000001b0: 605a e3bd 8698 10be ab1a c63e 2a08 95bd
000001c0: aafc 833d b77f 66be 5a17 81be 5594 393e
000001d0: 30a4 bcbe 7e16 be3e eb5b 5f3d a952 5f3e
000001e0: e079 9ebe 7f20 51be 2d7b 703e d58d c93d
000001f0: 5c94 7c3e d551 953e 5558 2c3e 75b5 c8be
00000200: f3c1 9a3e 7945 a5be df04 be3d cd9f 07be
00000210: 2708 b5be 6bda 5e3e e361 01bd e8a1 14bd
00000220: 83da 803d 718c c1be 9ff5 d73d ce3b 53be
00000230: 3c60 13be 89cc 81be 99ea 613e 6ca0 9e3d
00000240: 4489 c43e e60e bdbe 9c18 253e 8f2f b2bd
00000250: 0f48 6d3e bcc9 323e ccbb cf3e d5bd 9cbd
00000260: 1776 4c3e f10a 29be 2c47 ad3d a1ed acbd
00000270: 402f ddbd c518 5abe 30b2 c03e 883c 02be
00000280: 0ea0 69be b0be c33e 1d98 bdbe fb41 dbbe
00000290: 0657 0d3d dd0c 93be 7dc3 75be 6b8e 5bbe
000002a0: fb33 04be f0ad 14bf 7797 93be ad2b a6be
000002b0: a743 9c3e a0c6 30bd 4bfe 383e d9ee fe3d
000002c0: 1a46 82be 4ed4 993e 7fab 8dbe 73fc a43e
000002d0: a63d 93be e831 afbd 5ce4 6dbe 3f88 dd3e
000002e0: 1d77 af3e c946 da3c 249d 0dbd bc08 05ba
000002f0: 0e31 2f3e b524 9b3e db92 e6b9 07b0 33be
00000300: fc27 183d 6a40 2abe fc01 c83d 8345 9cbe
00000310: 4b1f 0fbe bea4 49be 92e2 a63e 4d38 52be
00000320: c11f 37be 75ec 8b3e 405e 2bbe 92ab 083e
00000330: 6b17 f9bd 5588 193e 6abd e03e 6ee2 66be
00000340: 86b8 cebe c9f0 eabe 368f 8ebe 7bca 993e
00000350: df3b c13e b9bc 44bd e422 053f 1d0b f13c
00000360: 6f6a e4be b65f 79be 9de2 ed3d 858a 5d3e
00000370: 2878 d63d d720 b93e 58ae 87bc eb7b 043f
00000380: 8930 d1bd 9393 7abe d0c5 8fbe 63ca 98be
00000390: df76 d1bd dfe0 be3e 8d5c bbbe db27 3fbe
000003a0: 18e1 4b3b 2b7f acbe 1262 653e ac56 2dbe
000003b0: 8477 5d3e ef98 3ebe 36a1 333c 5b6f cc3e
000003c0: a21e a03e 2fb7 853e f7c0 8ebe 50c5 863e
000003d0: 1e73 8a3e bd10 013b a36f 2dbe b334 aa3e
000003e0: 2767 553e f8d2 cb3d ea11 943c f91e a0be
000003f0: 0ec2 0a3e 05bc 47be 6c26 523e 63d7 05bc
-0.23794496 -0.26119837 -0.27152157 0.1804769 -0.3187923 0.34633648 -0.10659753 -0.34238195
-0.25266543 -0.16216597 -0.36812732 0.07486653 -0.24734569 0.44889176 -0.46270105 -0.41239274
0.09892557 0.11819408 -0.45281178 -0.0038254627 -0.51536196 -0.45027536 0.2051761 -0.13445736
0.27955803 0.23885119 -0.0064448765 -0.030874697 -0.15543532 -0.21770555 -0.1353623 0.071140945
-0.26558602 -0.4114276 -0.12058964 0.3636101 -0.12647736 0.19193918 -0.020582706 -0.008441197
0.41426927 -0.087677486 -0.063683406 0.1404701 -0.2679227 -0.17737061 -0.19899029 -0.3268183
-0.038580567 -0.35173178 -0.20879847 0.3196118 -0.39682803 -0.15073016 0.38490704 0.52415705
-0.24882133 -0.12393437 -0.33074367 0.43298542 -0.09697178 -0.2258218 0.21078578 -0.011665736
-0.16579252 -0.39577118 0.03115408 -0.21264404 -0.25673744 -0.44469047 -0.026162628 -0.3581532
-0.2777603 -0.14559689 0.014206539 -0.04292286 -0.4037863 -0.12646686 0.07898596 -0.029614262
0.0640021 0.39344403 -0.13545813 -0.22797388 0.16500473 0.08622629 -0.19612852 -0.005894732
-0.2936914 0.019849783 0.3687361 0.4420031 0.21737477 0.28716552 -0.039342076 -0.26170075
-0.14598018 0.2798832 -0.10636562 0.29219285 0.13216545 0.024919217 -0.37474102 -0.060751602
-0.18584333 0.059198122 -0.3851403 0.1240561 -0.11101222 -0.14120683 0.3869222 -0.07276948
0.06444676 -0.22509657 -0.25213128 0.1812299 -0.36844015 0.37126535 0.05453102 0.21808876
-0.30952358 -0.20422553 0.23484488 0.098415054 0.2466597 0.29163995 0.16830571 -0.3920094
0.30226097 -0.32279566 0.09278273 -0.13244553 -0.35357782 0.21763007 -0.031587493 -0.03628722
0.06291678 -0.3780246 0.105448954 -0.20628282 -0.14392179 -0.2535136 0.22062148 0.07745442
0.38385975 -0.3692543 0.16122669 -0.08700477 0.2317202 0.17459768 0.40572965 -0.07653395
0.19966923 -0.1650808 0.084608406 -0.084437616 -0.10800028 -0.21298511 0.37635946 -0.12718403
-0.22814962 0.3823142 -0.37030116 -0.42823777 0.03450682 -0.2872075 -0.24000354 -0.21441047
-0.12910454 -0.5807791 -0.28826496 -0.32455197 0.30520365 -0.043158174 0.18065755 0.124479
-0.25444108 0.30044788 -0.27669904 0.32223853 -0.28757972 -0.08554441 -0.23231643 0.4326801
0.34270564 0.026645081 -0.03457369 -0.0005074849 0.17108557 0.30301443 -0.00043978434 -0.17547618
0.037147507 -0.16626135 0.097660035 -0.30521783 -0.13976781 -0.1969175 0.32594734 -0.2052929
-0.17883207 0.2732884 -0.16735172 0.13346699 -0.1216267 0.14993413 0.4389451 -0.22547314
-0.40375155 -0.4588683 -0.27843636 0.30037293 0.3774099 -0.048031542 0.52006364 0.029424245
-0.44612452 -0.24352917 0.11615489 0.21634872 0.10472137 0.36157867 -0.016562626 0.51751584
-0.102143355 -0.24470358 -0.28080606 -0.2984191 -0.10227751 0.37280938 -0.36594048 -0.18667547
0.0031109508 -0.3369077 0.22400692 -0.16927594 0.21627623 -0.18613027 0.010963729 0.39928707
0.3127337 0.2611632 -0.27881595 0.26322412 0.27040952 0.0019693815 -0.16937117 0.3324333
0.20840131 0.099523485 0.018074948 -0.3127363 0.13550588 -0.19505318 0.2052247 -0.008169028

hidden.bias f4 [79]
00000000: b156 d1be 9d1d 0f3f b71c 8bbe 7c78 4d3d
00000010: d341 c83e fdd0 11be d43b 0bbe 8263 2ebd
00000020: f140 7f3e b185 ee3e 4974 b8be b118 013d
00000030: 893e 97be 77a5 da3d a6e0 233f 372d 153d
00000040: dbc9 e23e f278 86bd f795 e5bd c1ab 6d3d
00000050: 5a9d 633e 8737 c03e 1240 84be 3b90 da3d
00000060: f5cc 85be c9fa 313e 08e9 b3be f96f ad3e
00000070: 36d6 bbbd baff 033f 773d 1dbe 02e1 b7be
00000080: dbe6 38be ebd2 b53c d215 f4bd 8af4 b83e
00000090: aae4 71be ee36 1d3f 0b07 b2be 0341 c33e
000000a0: b266 9bbe d988 c63e ac29 063f b71d 66be
000000b0: 29cc aabe 928e 6e3e d15b a5bd 6654 91be
000000c0: 22fe f33e 4057 a73d 9cde 45be f813 d33d
000000d0: 93f7 98be c524 a0be c757 ae3e 884e 8bbe
000000e0: 2764 d7bd f8ac 6e3d 965a d3be cf8c febb
000000f0: 797c 5a3e c41d 7cbe 55da 8cbe 39a5 5dbe
00000100: 634b 8e3e 7fa9 08be 2f69 38bd 93de d33e
00000110: afb7 ee3e fe90 c1bd 7051 97bd 916b 0c3f
00000120: fbcd 86be 5a91 b33e a71f 613e d020 7ebe
00000130: d5d5 26be e47b 30be d22f 51be
-0.40886453 0.5590456 -0.27170345 0.05016373 0.3911272 -0.14239879 -0.13597041 -0.042575367
0.24927117 0.46586373 -0.3602622 0.03151769 -0.29539898 0.10676091 0.6401466 0.036420073
0.44294629 -0.06566037 -0.11210244 0.058025125 0.22227994 0.37542364 -0.25830132 0.10672041
-0.26132932 0.17380823 -0.35138726 0.3387449 -0.09171717 0.5156208 -0.15355478 -0.35913855
-0.18056814 0.0221953 -0.119182244 0.36124068 -0.23622385 0.6141194 -0.34770998 0.38135538
-0.30351788 0.3877628 0.52407336 -0.22472273 -0.33358887 0.23296574 -0.08074153 -0.28384703
0.47654825 0.081709385 -0.193232 0.10306543 -0.29876384 -0.31278053 0.34051344 -0.27208352
-0.105171494 0.058270425 -0.4128005 -0.0077682505 0.21336545 -0.2462073 -0.27510324 -0.21645059
0.2779189 -0.13345908 -0.045022186 0.41380748 0.46624514 -0.09451483 -0.0738858 0.54851633
-0.26329026 0.35071832 0.2198473 -0.24817204 -0.16292508 -0.1723476 -0.20428398

output.weight f4 [1, 79]
00000000: 0e7e b73e ce1f 0cbf a49a c63e e126 043f
00000010: 36cd 71be cb7e 893d 0eb8 6a3e 578b 723e
00000020: 563d 24be 361f 20bf 299b 5abe 9a16 c23e
00000030: 955a 09bc d990 b9bc 7540 10bf bed3 c3be
00000040: 2981 3ebe be57 a33e 9d43 98bb 73ad e43c
00000050: ffda ca3d 44ac 103e eb44 023e e81e 8b3e
00000060: 178d 33be 50be 0d3e 6597 2b3e d224 e6be
00000070: 09a6 fb3e 4402 0ebf b7e2 ed3e 21d0 3b3b
00000080: 2f75 85be 51c3 46be 27f1 98be bb7f d63e
00000090: 1616 ae3e 3984 1ebf 2da6 593e 1320 8abd
000000a0: 329c 03be 99fa 42be 6e8d 31bf 5237 b4bd
000000b0: 34cb dabd 47ed f9bd 8ea3 a03e c784 c33e
000000c0: 99aa 36be 9320 d03e 858a c63d 27b3 a0be
000000d0: 6dea a13d e7f7 80bd 8e5f 943e 332d 103e
000000e0: edfd e53e 75f2 2abe 4ff3 1bbf 026c 9b3e
000000f0: 7da6 a9be 5165 2a3d 733f 853e 57a8 0a3f
00000100: 38a3 7fbe 5bd1 7d3e 4ad2 e43e b810 18bf
00000110: 9ac3 fbbd f2c4 443e 3b2f 633e 2042 cabe
00000120: ac61 fd3e 9341 e8be 43b1 dabd e422 283e
00000130: ed2f 5b3e 4691 58be eed9 95be
0.3583836 -0.5473603 0.38789856 0.51621825 -0.23613438 0.06713637 0.22921774 0.23685966
-0.16039023 -0.62547624 -0.21348251 0.3790787 -0.008383413 -0.022652077 -0.56348354 -0.38247484
-0.18603958 0.3190288 -0.004646732 0.027914738 0.099050514 0.14128214 0.12721603 0.27172017
-0.1753429 0.1384213 0.16756971 -0.44949967 0.49150112 -0.5547221 0.46462032 0.002865799
-0.26065966 -0.19410445 -0.29871485 0.41894326 0.34001225 -0.61920506 0.21254797 -0.06744399
-0.12852553 -0.19040908 -0.6935643 -0.08799614 -0.10683289 -0.1220346 0.31374782 0.3818724
-0.17838515 0.40649852 0.09694389 -0.31386682 0.07906041 -0.062972836 0.28979152 0.14079742
0.44920292 -0.16694053 -0.60918134 0.3035584 -0.33134833 0.04160053 0.2602497 0.54163116
-0.24964607 0.24786894 0.44691688 -0.5940051 -0.122931674 0.19215754 0.22185986 -0.39503574
0.4948858 -0.4536253 -0.10678341 0.1641956 0.21405001 -0.21149167 -0.2926783
