best_model.pt (torch, 4311 bytes, 3 tensors)

hidden.weight f4 [79, 6]
0.16691737 -0.26869383 -0.13341098 0.17755948 0.103529505 -0.14724873 -0.35239223 -0.12114079
-0.14179179 -0.21181563 -0.2480781 -0.097321145 -0.163193 0.11615132 -0.30970973 0.23035632
-0.09540142 -0.21066971 0.12119174 0.2021255 -0.10460968 -0.2680966 0.36302587 0.2517134
0.2597766 0.1534722 0.37182105 -0.06272103 0.22825252 -0.10822971 0.27721143 -0.0301918
-0.1734487 0.30108282 -0.43498105 0.16743767 0.3044255 -0.20125271 -0.28218174 0.31361076
0.26480848 -0.2094373 -0.0044016694 0.3843308 -0.15466326 -0.066966064 -0.37241006 -0.10065544
0.4246047 0.37294555 0.016059961 0.16342196 -0.19675167 -0.011707322 0.04314386 0.16457875
-0.22466752 0.034230813 -0.2548908 0.28298014 -0.049402155 -0.054814726 -0.28708437 0.23300746
-0.33822545 0.12861529 -0.18425322 -0.057676487 -0.16746376 0.06795228 -0.4220793 0.32226247
0.052369 -0.31587127 -0.1560934 -0.18865971 0.17162436 -0.058790717 -0.17213057 0.27493766
0.099646084 -0.2827062 -0.31593025 0.37900472 0.11258516 -0.27806693 -0.46474648 0.032371752
0.36311775 0.077904135 0.0647525 -0.0709635 0.21554764 -0.0020351138 0.4016016 -0.03108476
-0.266617 0.2806432 -0.043011732 0.19128716 0.057830434 0.06021362 -0.15748483 0.16554737
-0.3266335 -0.1386375 -0.0024130677 -0.4377533 0.35943234 -0.28194392 0.022073397 -0.0633421
-0.11372662 0.1488775 0.37201813 0.28171805 -0.3312539 -0.26581615 -0.006710442 0.40968224
0.14798345 -0.11072629 0.21941602 0.31816807 -0.22678496 -0.24037611 -0.4592888 0.3329918
0.11552366 0.47464967 0.22883317 0.25354743 -0.39814568 0.21114093 0.16509295 0.0454361
-0.04039062 0.2893353 -0.13334641 0.01394899 -0.15113054 0.20221928 -0.48717844 -0.36605644
-0.114094116 0.17675325 -0.25095293 -0.26974884 0.05860072 0.076513104 -0.14115463 -0.29983464
0.35302612 -0.40655106 -0.28492048 0.21842536 0.23953153 0.23196997 -0.31649655 0.37667066
0.17759638 0.29398495 0.022830833 0.08868784 -0.29596382 -0.4909207 0.2915469 -0.34281126
-0.32788852 0.1935579 0.11944074 0.41366518 0.1588411 -0.24494858 -0.61353606 0.39103717
0.24163477 0.5063712 0.04586963 0.22358146 0.12916286 -0.020530166 0.008690084 0.20037223
-0.3588658 0.030506838 -0.28312272 0.15846659 0.0632259 0.07461009 -0.24772911 -0.39849198
-0.399344 0.15514822 -0.12347335 -0.39775702 0.081183955 -0.27608606 0.104191415 -0.19940463
0.48625854 -0.15628548 -0.8675882 -0.715539 0.07005651 -0.13600922 -0.017475368 0.15368658
0.19246063 0.17500973 0.19544251 0.06872261 0.38918585 0.008477948 0.45032898 0.28896895
0.18750714 -0.07976357 -0.12079082 -0.1656396 -0.31361973 -0.0077710245 0.38814878 0.3044001
0.26080275 -0.13744177 0.12156866 0.07938299 0.081441015 -0.070737526 0.18028647 -0.13538356
-0.21576735 -0.5305409 0.0052416124 -0.34806293 0.13628948 -0.2031588 -0.03477108 -0.21670134
-0.3234214 0.003474978 -0.25085828 -0.40874377 0.17373072 0.118157156 -0.34320426 0.35319838
0.26052427 -0.15419558 0.12435441 -0.35613295 -0.24629188 0.10609625 0.09616405 -0.250724
00000000: 63ec 2a3e 3d92 89be e39c 08be 27d2 353e
00000010: 4707 d43d 5fc8 16be c16c b4be aa18 f8bd
00000020: de31 11be 32e6 58be 2f08 7ebe 4f50 c7bd
00000030: 111c 27be bee0 ed3d 4692 9ebe 87e2 6b3e
00000040: d261 c3bd cdb9 57be 6033 f83d fdf9 4e3e
00000050: 9a3d d6bd f543 89be 87de b93e 94e0 803e
00000060: 7001 853e d127 1d3e 545f be3e e273 80bd
00000070: 07bb 693e 8aa7 ddbd a8ee 8d3e cb54 f7bc
00000080: 899c 31be 8727 9a3e d6b5 debe c874 2b3e
00000090: a9dd 9b3e 3115 4ebe 207a 90be 9791 a03e
000000a0: fa94 873e bb76 56be e13b 90bb 02c7 c43e
000000b0: 0c60 1ebe 8125 89bd 88ac bebe 7024 cebd
000000c0: ca65 d93e b8f2 be3e 2e90 833c 1658 273e
000000d0: 4579 49be 11d0 3fbc 9eb7 303d 5587 283e
000000e0: 3e0f 66be 9c35 0c3d 0c81 82be c6e2 903e
000000f0: ea59 4abd 6885 60bd b9fc 92be 8299 6e3e
00000100: e32b adbe bab3 033e e0ac 3cbe 2e3e 6cbd
00000110: 9f7b 2bbe 912a 8b3d c71a d8be 96ff a43e
00000120: e080 563d e1b9 a1be f3d6 1fbe 0330 41be
00000130: 4cbe 2f3e 89ce 70bd ff42 30be a1c4 8c3e
00000140: 3f13 cc3d debe 90be 9cc1 a1be e80c c23e
00000150: 0c93 e63d ca5e 8ebe 40f3 edbe 3e98 043d
00000160: 92ea b93e 348c 9f3d f59c 843d 5055 91bd
00000170: 85b8 5c3e 8b5f 05bb ba9e cd3e 77a5 febc
00000180: 0682 88be 77b0 8f3e 122d 30bd c8e0 433e
00000190: 9bdf 6c3d 8fa2 763d b443 21be 4085 293e
000001a0: 823c a7be fdf6 0dbe 8f24 1ebb 3321 e0be
000001b0: 8407 b83e f45a 90be 45d3 b43c 81b9 81bd
000001c0: 81e9 e8bd 5873 183e 2979 be3e 593d 903e
000001d0: 1c9a a9be 0e19 88be 44e3 dbbb dfc1 d13e
000001e0: f988 173e 77c4 e2bd 98ae 603e ede6 a23e
000001f0: 513a 68be 2825 76be e727 ebbe e77d aa3e
00000200: ab97 ec3d 4805 f33e 3e53 6a3e f8d0 813e
00000210: c0d9 cbbe 5435 583e 200e 293e 341b 3a3d
00000220: a270 25bd c223 943e f68b 08be 4e8a 643c
00000230: f7c1 1abe 9212 4f3e 746f f9be c06b bbbe
00000240: 2daa e9bd cefe 343e e77c 80be 851c 8abe
00000250: 4f07 703d e7b2 9c3d d78a 10be ed83 99be
00000260: d7bf b43e 7627 d0be 19e1 91be e6aa 5f3e
00000270: c147 753e 8989 6d3e d60b a2be fada c03e
00000280: d3db 353e 3285 963e ba07 bb3c f8a1 b53d
00000290: 9288 97be f559 fbbe a345 953e f584 afbe
000002a0: 01e1 a7be 0b34 463e 599d f43d eccb d33e
000002b0: 3ea7 223e cdd3 7abe b310 1dbf 0636 c83e
000002c0: 1b6f 773e 8ba1 013f cbe1 3b3d 8af2 643e
000002d0: 4543 043e e12e a8bc db60 0e3c 612e 4d3e
000002e0: 42bd b7be 7ae9 f93c 76f5 90be 1145 223e
000002f0: 957c 813d 2dcd 983d b3ac 7dbe 2407 ccbe
00000300: d176 ccbe 2ddf 1e3e 99df fcbd cfa6 cbbe
00000310: c643 a63d 275b 8dbe 4f62 d53d ba30 4cbe
00000320: e1f6 f83e 4d09 20be 431a 5ebf 902d 37bf
00000330: ca79 8f3d 0046 0bbe 8128 8fbc 0460 1d3e
00000340: 6614 453e c035 333e 1522 483e 71be 8c3d
00000350: 5e43 c73e 17e7 0a3c 8591 e63e bdf3 933e
00000360: df01 403e 155b a3bd 2d61 f7bd 6d9d 29be
00000370: c492 a0be 14a4 febb 70bb c63e 54da 9b3e
00000380: f087 853e 89bd 0cbe fdf8 f83d 8d93 a23d
00000390: 8cca a63d d6de 90bd 049d 383e fda1 0abe
000003a0: 1ef2 5cbe 87d1 07bf d5c1 ab3b 4e35 b2be
000003b0: 788f 0b3e dc08 50be 1f6c 0ebd f5e6 5dbe
000003c0: 7d97 a5be 75bc 633b 7f70 80be dd46 d1be
000003d0: 77e6 313e 61fc f13d 78b8 afbe 6bd6 b43e
000003e0: 7063 853e 72e5 1dbe 86ad fe3d 0f57 b6be
000003f0: f033 7cbe fe48 d93d a8f1 c43d e55e 80be

hidden.bias f4 [79]
0.3845802 -0.26470977 0.07796222 0.14463788 0.26944196 0.44828054 -0.24591948 -0.3839528
0.15217613 0.46551734 0.4363821 -0.025733346 -0.34568954 -0.077044 -0.08075595 0.021481963
0.30052462 -0.27702764 0.009228754 -0.08568653 0.107100375 -0.216963 -0.37151715 0.07771479
-0.1765912 0.1097436 0.33604476 0.13332406 -0.15311259 -0.38660267 0.4808607 0.3633758
-0.052791655 0.4354094 -0.20089066 -0.28986275 0.51730007 0.17014019 0.457759 -0.20454732
-0.020817688 0.377264 0.085331224 0.080869965 0.8005701 0.14219709 0.059113044 -0.29669812
0.28882152 -0.3581717 0.17415841 0.474978 -0.051020652 0.15696384 0.3859949 0.2924743
-0.20178255 -0.12477881 0.17577036 -0.12292618 -0.37642506 -0.06661187 -0.08136164 -0.063505575
-0.33771268 -0.2946284 0.359087 -0.09991379 -0.16073611 0.17771526 0.36439148 0.22646682
-0.1424182 -0.1838932 -0.48912957 -0.31398785 -0.3763619 0.17715596 0.12568288
00000000: b2e7 c43e 0a88 87be a8aa 9f3d f41b 143e
00000010: 4cf4 893e 0785 e53e 51d2 7bbe 7695 c4be
00000020: 0fd4 1b3e 4a58 ee3e 7a6d df3e bdce d2bc
00000030: 38fe b0be 3fc9 9dbd 6063 a5bd f1fa af3c
00000040: 5dde 993e 91d6 8dbe 3334 173c 6b7c afbd
00000050: 7157 db3d 8c2b 5ebe 7f37 bebe ef28 9f3d
00000060: 53d4 34be 41c1 e03d 0f0e ac3e 1a86 083e
00000070: 8cc9 1cbe c9f0 c5be 6033 f63e 650c ba3e
00000080: 103c 58bd fbed de3e 48b6 4dbe e468 94be
00000090: c76d 043f 3b39 2e3e 635f ea3e da74 51be
000000a0: db89 aabc bf28 c13e 23c2 ae3d 279f a53d
000000b0: 29f2 4c3f 1d9c 113e 8520 723d d1e8 97be
000000c0: 6ae0 933e 4862 b7be 9556 323e 5130 f33e
000000d0: 08fb 50bd 21bb 203e 20a1 c53e 31bf 953e
000000e0: 16a0 4ebe 088c ffbd 25fd 333e b9c0 fbbd
000000f0: c9ba c0be ce6b 88bd eea0 a6bd 360f 82bd
00000100: ade8 acbe 89d9 96be 40da b73e 9a9f ccbd
00000110: 0298 24be fdfa 353e 8591 ba3e ebe6 673e
00000120: 14d6 11be 804e 3cbe 316f fabe 04c3 a0be
00000130: 82b2 c0be 5f68 353e 03b3 003e

output.weight f4 [1, 79]
0.078184046 0.2258463 0.15706109 0.0021372412 0.15562373 -0.4434627 0.035483915 0.03594248
-0.37227142 -0.36007446 -0.18341936 0.14611027 0.05596402 0.07274902 0.29616082 0.27014312
-0.0956213 0.35147235 -0.1434575 -0.15677911 -0.21013026 0.5272489 0.24473605 -0.08810106
0.2771715 -0.0028696186 -0.38642332 0.32602233 0.23923312 0.6858307 -0.42890152 -0.32238325
0.1989836 -0.9383353 -0.012803307 0.23367587 -0.40761593 0.0368383 -0.3815476 -0.11985579
0.22340512 -0.19428086 0.10013337 -0.09563665 -0.78248376 -0.08398492 0.5356313 0.16138388
-0.3758326 0.39236915 0.042955447 -0.33232543 0.05210849 0.22905129 -0.2937234 -0.3058817
0.31878433 0.24490401 -0.44840926 0.19175765 -0.331264 0.2687953 0.30523807 0.06986025
0.1946436 -0.18893556 -0.3056123 0.4472971 0.24171771 -0.09961864 -0.47302142 0.11791559
0.018192096 0.22188579 -0.5268371 0.22952393 0.33700183 -0.029685168 -0.06338272
00000000: f51e a03d 4144 673e 9fd4 203e f510 0c3b
00000010: d45b 1f3e 8b0d e3be 9557 113d 6c38 133d
00000020: 5c9a bebe ae5b b8be 49d2 3bbe ee9d 153e
00000030: 873a 653d 70fd 943d 64a2 973e 3350 8a3e
00000040: 1ad5 c3bd 2ff4 b33e 86e6 12be b48a 20be
00000050: 632c 57be c9f9 063f 169c 7a3e 546e b4bd
00000060: 6ce9 8d3e 3610 3cbb 47d9 c5be 66ec a63e
00000070: 87f9 743e 9a92 2f3f fb98 dbbe 6b0f a5be
00000080: 5bc2 4b3e be36 70bf f6c4 51bc ba48 6f3e
00000090: 09b3 d0be c2e3 163d 355a c3be f476 f5bd
000000a0: 50c4 643e 90f1 46be b912 cd3d 26dd c3bd
000000b0: db50 48bf 4900 acbd 221f 093f d141 253e
000000c0: 216d c0be 9ce4 c83e 0df2 2f3d 8f26 aabe
000000d0: b66f 553d 6c8c 6a3e ea62 96be 879c 9cbe
000000e0: b337 a33e 1ec8 7a3e e695 e5be 1e5c 443e
000000f0: 6f9b a9be 8a9f 893e 2a48 9c3e e412 8f3d
00000100: a750 473e 5378 41be 3779 9cbe 2004 e53e
00000110: d984 773e dc04 ccbd dd2f f2be bb7d f13d
00000120: 9707 953c 0736 633e ccde 06bf 5208 6b3e
00000130: 818b ac3e 4f2e f3bc cdce 81bd
